dataset/model_v3.pt (torch, 118621 bytes, 18 tensors)

cls_layer1.0.weight f4 [1, 768]
00000000: 5156 0fbd 4c71 77bc c065 393b 6eeb 89bc
00000010: 60d7 b83a baf9 37bc 2c44 58bc 5218 cc3c
00000020: 04d9 f53c 4e5a d03c 86db 65bc d4cf cdbc
00000030: d010 04bb 707a 583b 886c f93b 1a7c c33c
00000040: d8f7 86bb 946c c83c 2e56 0dbd 608a 113d
00000050: e080 e0bb 7229 0b3d e062 e93c 3f74 12bd
00000060: a8d2 4b3c ed20 bbbc d059 8bbb b0ae ca3b
00000070: 0021 883b 22aa 61bc e880 9fbc a80f f43b
00000080: 00fa 173b e87e ad3c 8aa9 73bc 0cfb da3c
00000090: 7808 a1bb 6475 333c 9e36 b63c fc8b 82bc
000000a0: 0049 0439 ae50 79bc 9401 0e3d 20a7 afbc
000000b0: c0f4 f43c 78ee bcbb 84ae e03c 6ed3 a53c
000000c0: 0e25 cf3c da86 f4bc cca2 08bd 5a54 eabc
000000d0: 1db4 0dbd 722e 043d 41e0 afbc 3225 c83c
000000e0: a8ff df3c 6947 97bc f4e2 d1bb fb30 86bc
000000f0: 1801 093d 3af1 11bd 109d 763b e381 a5bc
00000100: 5f02 0dbd 5073 943b 2d53 02bd 460f e4bc
00000110: 4a8c b23c 1ed4 c0bc 43ef 02bd d056 a7bc
00000120: f8b9 893c 8ab5 10bd 1824 093c 506f 5e3c
00000130: 8420 a9bc d282 a1bc 565f d9bc 6cb4 4e3c
00000140: 3e47 873c 4294 a1bc e613 013d 3ee6 bcbc
00000150: f70e a5bc 80e5 1bbc 1095 793b ba65 b73c
00000160: 8cba d33c 1829 df3c bfdb a5bc 507a b63b
00000170: 0484 973c e095 ddba 8311 ccbc f231 ac3c
00000180: b801 d1bb f433 bbbc 164e 0a3d 7465 bfbc
00000190: c076 533a 7bab 95bc c481 aebc 4653 d53c
000001a0: b486 35bc fbc3 12bd 0420 20bc f482 fa3c
000001b0: b0f0 193b d404 383c f869 1a3c 38db ab3c
000001c0: f23f 9ebc 0e1c a1bc f861 ce3c 8204 01bd
000001d0: 82ab 973c e42d 4d3c 90f0 1fbc e0dd df3c
000001e0: f87d 653c 78fb 8b3b 544a 993c 4c5d de3c
000001f0: a072 123c 9c34 babc 786c e73c 7b2f 0cbd
00000200: f0dc 0b3d 5cab 26bc 3048 e6bc ace6 5f3c
00000210: 869a 833c 7c1e 26bc 7c96 0f3d 1a69 84bc
00000220: 1c60 e83c 10f6 053c 1f30 e9bc 324c a73c
00000230: c5b4 09bd 8c8a cdbc 505a eabb 8867 bc3b
00000240: c08c 463a c0c6 08bd 007a b5b9 509c 063c
00000250: 4ac2 3dbc 879c 91bc f201 a2bc 301f 2bbc
00000260: f01d 20bb 5c9d 8a3c d089 d4bb c890 f0bc
00000270: 202d 0b3d 84d5 ef3c 1056 67bc 0854 eebc
00000280: 4347 04bd 10c6 cc3c 7ed0 5cbc 66c8 9f3c
00000290: 19e9 12bd 8c9d b1bc 40d9 933c 64c7 733c
000002a0: 6ff8 80bc 3a32 013d 281f bb3b f852 9cbb
000002b0: 9026 7ebb d0cd 403c 18a0 8e3b 7c8e ae3c
000002c0: 6472 173c b448 b4bc fab1 0fbc c052 a93b
000002d0: cc98 7dbc b862 fd3b 8ce0 7f3c 326e 04bd
000002e0: fd9f 05bd 280b d53c 162f 5cbc 0642 57bc
000002f0: 01c9 dfbc 7152 0fbd 2c45 513c ea6d c0bc
00000300: 8626 6bbc 7e32 083d a89a a33c 6819 b3bc
00000310: a573 04bd e43c e13c 407b 4cbb 943f 123d
00000320: d80d 053d 4064 c6ba 7029 023b 289e 2e3c
00000330: 6ecc 3ebc 904b c33b 54f1 ef3c 1ac2 02bd
00000340: c2ba b7bc 8c28 23bc 9944 81bc e848 96bc
00000350: 0451 7b3c eeb4 973c 08f4 f73c a4ba 6b3c
00000360: 0054 46ba 20e4 323c f446 1f3c fcec 1e3c
00000370: 40d1 843b 5ad7 c83c 8ed5 9f3c d4e9 053d
00000380: b4bf b5bc c022 eb3c f75b 83bc 74d3 6a3c
00000390: 20cc 15bb 875f 0ebd 6481 8cbc 20aa f83b
000003a0: beb5 f3bc 0524 86bc 9068 9cbb 3028 983b
000003b0: 93a6 d6bc 64fc 5e3c 7488 163c d4b6 103d
000003c0: 3865 ef3c 9838 0b3c 92ff 7dbc 18d0 b93b
000003d0: e8ee 693c f067 20bb 9486 f0bb 98b9 043c
000003e0: ca5c 77bc 7caa f83c d026 6fbb 626b 5dbc
000003f0: b801 f73b 9ee1 c73c 80f9 0cba 20d4 f63a
-0.034994427 -0.015102696 0.0028289407 -0.016835894 0.0014102273 -0.011228973 -0.013199847 0.02491394
0.030010708 0.025433686 -0.014029389 -0.025123514 -0.0020151623 0.0033031963 0.007611815 0.023862887
-0.0041189007 0.024465837 -0.034506015 0.035532355 -0.0068513006 0.033975072 0.02848953 -0.035755392
0.012440361 -0.022842849 -0.00425265 0.006185375 0.0041543245 -0.013773473 -0.019470647 0.0074481554
0.0023189783 0.021178678 -0.014871964 0.026731037 -0.0049143396 0.010953281 0.02224284 -0.01593589
0.00012615696 -0.015216989 0.034669474 -0.021441996 0.029901862 -0.0057657324 0.027426966 0.02024242
0.025286224 -0.029849458 -0.03335838 -0.028604675 -0.034595598 0.032270856 -0.021469237 0.024431799
0.027343586 -0.018466668 -0.0064052287 -0.016380778 0.03344831 -0.035630442 0.0037630238 -0.020203536
-0.03442609 0.004530348 -0.031817604 -0.027839314 0.02179541 -0.023538645 -0.03196646 -0.020427138
0.01681231 -0.03532938 0.008370422 0.013576344 -0.020645387 -0.0197157 -0.026534718 0.012616258
0.016513463 -0.019724015 0.031513117 -0.023059007 -0.020148737 -0.009515166 0.0038083233 0.022387374
0.025845788 0.027241275 -0.020246385 0.00556878 0.018495567 -0.0016905628 -0.024910694 0.02101991
-0.0063783787 -0.022851922 0.033765875 -0.023363806 0.00080667064 -0.018270245 -0.021302111 0.026040684
-0.011079479 -0.035831433 -0.009773258 0.030580021 0.0023489408 0.01123162 0.009424679 0.020978555
-0.0193176 -0.019666698 0.0251932 -0.03149844 0.018514398 0.012523148 -0.009761944 0.027327478
0.014007084 0.004271921 0.0187122 0.027144097 0.008938462 -0.022730164 0.028249964 -0.03422497
0.03414625 -0.010172691 -0.028110594 0.013665836 0.016064893 -0.010139104 0.035055622 -0.016163398
0.028366141 0.008176342 -0.028465329 0.020422075 -0.03361966 -0.025090478 -0.0071518794 0.0057496466
0.0007574074 -0.033392668 -0.00034613907 0.008215979 -0.011581967 -0.017774833 -0.019776318 -0.010444447
-0.0024431907 0.016920738 -0.006486155 -0.029365912 0.03397858 0.029276617 -0.01411964 -0.029092804
-0.032294523 0.024996787 -0.013477443 0.019504737 -0.03586683 -0.02168157 0.018047929 0.014879081
-0.015743462 0.03154204 0.005710501 -0.004770633 -0.003878031 0.0117678195 0.0043525808 0.021308176
0.009243581 -0.022007324 -0.00877046 0.0051673353 -0.015478324 0.0077327155 0.015617501 -0.032331653
-0.03262328 0.026006296 -0.013438961 -0.0131383 -0.027317526 -0.03499073 0.0127728395 -0.023489911
-0.014352446 0.033251278 0.019971207 -0.0218627 -0.03233685 0.027494855 -0.0031201392 0.035705164
0.032483906 -0.0015136078 0.0019861124 0.010657825 -0.0116454195 0.0059599355 0.029289879 -0.03192339
-0.02242792 -0.009958398 -0.01577978 -0.018345311 0.01533914 0.018518891 0.03026773 0.01438776
-0.00075656176 0.010918647 0.009721506 0.009700056 0.004053265 0.02451675 0.01951101 0.0326937
-0.022186138 0.028703094 -0.016035063 0.014332641 -0.0022857264 -0.03475907 -0.017151542 0.00758864
-0.029749747 -0.016374597 -0.004773207 0.0046434626 -0.026202476 0.013609979 0.009187806 0.03533061
0.02922307 0.00849738 -0.015502827 0.0056705587 0.014278151 -0.0024476014 -0.0073402617 0.00810089
-0.015097806 0.03035473 -0.003649164 -0.013514372 0.0075380467 0.024399575 -0.00053777546 0.0018831529

cls_layer2.0.weight f4 [1, 768]
00000000: 289b 073d a45f bd3c ac7c 003c 5c31 b43c
00000010: fc8b bf3c d44b 113c 5865 8cbc b8e9 1cbc
00000020: 88fb 733c e08d 6f3c 5c1d f23c 1caf a63c
00000030: 6c20 193c 60aa 883a 80b8 4a3a e8aa 44bc
00000040: c8f8 9f3c 0836 9ebc 6ac5 0fbd e6ec 4dbc
00000050: 50a4 f9bb 9080 6bbb b0ce 4ebb d08a 01bb
00000060: f099 bb3c 00ca 4fb9 f089 073d c5a3 8bbc
00000070: 3ef8 4fbc 58df fd3c 3069 063c 1abd b43c
00000080: a197 83bc ae79 113d 4606 913c 18ba a23b
00000090: 7870 413c b049 cbbc 0004 0e39 c8d4 a13b
000000a0: 60d1 bd3a 7c2c 3bbc 5070 a1bb f8ef 1dbc
000000b0: e0a3 843b fc14 163c b0fd 8f3b c82a f2bc
000000c0: d08d 903c 08bf 97bc c602 843c 406c 1abb
000000d0: d120 0cbd 182a eabb 20f0 853c 22b6 64bc
000000e0: 08c1 0ebd 208a cc3b 1824 9ebb f470 c53c
000000f0: a1ce 9bbc b842 173c e454 bebb 044a 23bc
00000100: 18c8 e9bc 39c1 0fbd 7886 d53c 5606 103d
00000110: 2272 133d 3fdf a5bc bc15 533c e066 9a3c
00000120: 6cb6 d3bc 8ebc dabc 36ba fcbc de3a ae3c
00000130: 4433 ea3c 90bc 353b cad4 f2bc c43b d5bc
00000140: 6924 98bc 3ab7 1ebc 30d2 babb f4d8 623c
00000150: 80c8 863b d8a3 343c cc8c f33c e2c1 dbbc
00000160: 4590 8fbc b8de dd3c b0bc 8e3b 42f1 933c
00000170: dcdb 123d 3497 e9bb c09f 0d3d 9c07 0f3d
00000180: a4e4 eb3c a214 cfbc eac4 113d d0aa 883b
00000190: bef5 cd3c d57c 01bd 70df 503b 10a5 b53b
000001a0: e5c6 fbbc b6e5 7ebc dc81 55bc 30a5 fc3c
000001b0: 8919 c5bc 8b23 07bd da47 d43c 4ce0 10bc
000001c0: fc85 90bc 1603 a33c 5ff4 a1bc 7832 e23b
000001d0: 9506 12bd 6c70 30bc 3802 97bb 078e 88bc
000001e0: 885d fa3c 5c87 bc3c 5893 bfbc 2455 433c
000001f0: d0b0 873b 366e 0b3d a067 743c 8858 633c
00000200: 2072 9a3a 71bb 0bbd 20eb e1bb 19ac f5bc
00000210: f34b 0cbd 00c6 8d38 0a36 a33c f0c2 e4bc
00000220: 5021 de3b 00fc 6fb9 38ed 003d c219 033d
00000230: 8084 653b a83d e13c e64f c43c 5852 d33b
00000240: 192b 8ebc 2047 51bb c8f8 c03b 9868 c5bc
00000250: 0c67 ee3c f860 e13c 4043 ac3a b251 103d
00000260: 01a6 fabc 84b8 e83c 64a5 023d ba14 a23c
00000270: 00f8 b53a f055 59bb 5894 e53c 5a93 a73c
00000280: 31aa 13bd 5885 113c a6b6 9a3c d81f e03c
00000290: 9681 1cbc 37a9 0ebd 7490 d83c dce8 583c
000002a0: b034 a73b e0ca 58bc fc55 f93c e600 d5bc
000002b0: 1af7 0dbc 200b 98bb f45e 2cbc e62d 12bc
000002c0: 51d7 b2bc 7436 bfbc dc6d e53c 4051 a0bc
000002d0: 5283 07bc 46a4 b33c a0f6 653c 4eff e3bc
000002e0: ac0e 1dbc 58c8 8ebb d451 0abd 64fc 523c
000002f0: 4c4f e33c f64e ccbc 6c31 d2bc c45f 103d
00000300: 5008 963b 982b df3b 185e 833c c0aa 123b
00000310: b057 90bb 249d 0cbc 7e01 0ebd e090 d7ba
00000320: a8b3 943b 48f0 ba3c f053 04bd b8e6 a13c
00000330: 2cf2 06bd 0680 11bc ff48 09bd 8c07 95bc
00000340: 3246 d0bc 8018 b73b b0f1 393b dcc4 12bd
00000350: 00fc 0c38 0c10 443c 0cae 7d3c 38af eebb
00000360: 04ae f3bb 5850 d33b d223 54bc aca8 cebc
00000370: c8c1 de3c 98f1 233c 3452 8d3c 6f4c 02bd
00000380: 244c 053d 6029 093c 9252 053d 565f febc
00000390: 404b f83a 9812 3a3c cc40 22bc 86b2 62bc
000003a0: b058 d1bb 984e a2bb f4a3 0c3d 38cb c7bc
000003b0: 663c 0abc e874 cb3b 9dd6 8cbc c655 05bc
000003c0: 5801 a13c 02be 063d 666a 06bd 883e bb3b
000003d0: e0a8 13bc d2cc 4ebc 5003 a53c 00b3 0dbb
000003e0: 80e5 dd39 982c c2bc 4039 913b 0046 e5b8
000003f0: b030 b5bb 9ef2 a93c 2887 6d3c b8f3 0f3c
0.033106953 0.023116894 0.007842224 0.021996193 0.02338218 0.0088681765 -0.017138168 -0.009577207
0.014891513 0.014621228 0.029555015 0.02034717 0.009346109 0.0010426752 0.0007733181 -0.012003638
0.019527808 -0.019312873 -0.035100378 -0.012568688 -0.0076184645 -0.0035934784 -0.00315563 -0.0019766577
0.022900552 -0.00019816309 0.03309053 -0.017045865 -0.012693463 0.030990288 0.00820379 0.022062827
-0.016063513 0.035516433 0.017703187 0.0049660318 0.0118066 -0.02481541 0.00013543665 0.0049386956
0.0014481954 -0.01142418 -0.004926719 -0.009639733 0.0040478557 0.0091602765 0.0043942556 -0.029561415
0.017645746 -0.018523708 0.016114604 -0.0023563057 -0.034210984 -0.0071461312 0.016349852 -0.0139594395
-0.034852058 0.0062420517 -0.00482608 0.024101712 -0.019019427 0.009232216 -0.0058084596 -0.009966377
-0.028537795 -0.03509638 0.026065096 0.035162292 0.035997517 -0.020248054 0.0128836 0.018847883
-0.025843821 -0.026701238 -0.030850511 0.021268304 0.028588898 0.00277308 -0.029642481 -0.026029475
-0.01857205 -0.009687239 -0.005701326 0.013845671 0.004113257 0.0110253915 0.029730223 -0.026825849
-0.017524848 0.02708374 0.0043559894 0.018059377 0.035854205 -0.0071286205 0.034576178 0.034919366
0.028795548 -0.025278393 0.035588183 0.004170753 0.025141593 -0.03161319 0.003187146 0.0055433586
-0.030734489 -0.015557697 -0.013031449 0.030840486 -0.024060028 -0.03299288 0.025913168 -0.008842539
-0.017642014 0.019898932 -0.019769846 0.006902989 -0.03565081 -0.010768991 -0.004608419 -0.016669286
0.030562177 0.023013763 -0.023385689 0.011922155 0.0041409507 0.034040652 0.014917284 0.013876088
0.001178328 -0.034114305 -0.006894484 -0.02998929 -0.03425212 6.760284e-05 0.019923229 -0.027924985
0.0067788735 -0.00022886693 0.03147623 0.032006986 0.0035021603 0.02749522 0.02396388 0.006449025
-0.017354535 -0.0031933263 0.005889032 -0.024097726 0.029101871 0.027512059 0.0013142601 0.03523416
-0.030596735 0.028408296 0.03189601 0.019785274 0.0013883114 -0.0033162795 0.028024837 0.020456005
-0.03605098 0.008881889 0.018885922 0.027358934 -0.00955238 -0.034829345 0.026436068 0.013239112
0.0051027164 -0.013231963 0.030436508 -0.026001405 -0.008664871 -0.004639998 -0.010520685 -0.008922076
-0.021831186 -0.023341395 0.028006487 -0.019569993 -0.008271055 0.021928918 0.014035851 -0.0278317
-0.009586018 -0.004357379 -0.033769444 0.012877557 0.027747773 -0.024939995 -0.025658332 0.03524758
0.0045786276 0.0068106167 0.016036078 0.0022379607 -0.0044049844 -0.008582387 -0.03466939 -0.0016446374
0.0045380183 0.022819653 -0.03230661 0.019763336 -0.032945797 -0.008880621 -0.03351688 -0.018192075
-0.025424097 0.0055876374 0.0028372817 -0.03583227 3.3613294e-05 0.0119667165 0.015483391 -0.0072840713
-0.0074365158 0.0064487867 -0.012947993 -0.025226913 0.027192011 0.010006331 0.017251112 -0.031811174
0.032543316 0.008371681 0.03254945 -0.03105132 0.0018943325 0.011356972 -0.009903144 -0.013836509
-0.006388746 -0.0049532168 0.034336045 -0.024388894 -0.008437252 0.0062090047 -0.01719218 -0.008138126
0.019653961 0.03289605 -0.032816313 0.0057142414 -0.009012431 -0.012622075 0.020143181 -0.0021621585
0.00042323396 -0.023702905 0.0044318736 -0.000109326094 -0.0055294856 0.020745572 0.014497556 0.008786134

cls_layer3.0.weight f4 [1, 768]
00000000: 7c03 7fbc 0435 503c 3a19 cf3c 300b ce3b
00000010: b3a8 f7bc 12c9 e1bc 02f6 04bd 3064 45bc
00000020: 0876 8dbb 84fe 083d 38ae aa3c 3c46 0b3d
00000030: 4cb3 ef3c c057 1e3a bc05 c33c 74f1 d6bb
00000040: fc8f bbbc 2c87 603c c011 da3c 2c0a ac3c
00000050: c292 c1bc c602 a0bc 66f9 a63c f083 cc3c
00000060: 6c9d 403c 48fc e1bc c334 0dbd a0cb 623b
00000070: 8405 73bc d16b ebbc 20c9 d23c 6898 9f3b
00000080: efa2 f7bc 1223 28bc 4a8e d13c 172b 01bd
00000090: 7f68 0abd 407d fd3c f025 f53b 5059 b93c
000000a0: 4fe8 a3bc e09b 94bb 2bfe fcbc 9d87 eebc
000000b0: 403d 693c 1c3d 113d b4af ab3c 5027 a93b
000000c0: d653 e6bc b469 60bc 0009 b1b9 cc96 d93c
000000d0: fe39 4dbc 41d1 a3bc 8ec7 953c 8ffe febc
000000e0: ec66 dd3c 61da adbc 5885 b83c e684 0e3d
000000f0: 8050 cbb9 732d d8bc d873 183c 302c 053d
00000100: 2075 5f3c f0d0 f03c 1826 023d f8db 913b
00000110: 9018 da3c 0606 973c b0f5 813c 2486 c9bc
00000120: 787f ea3c 080c bd3c 6025 a63a f2bc 71bc
00000130: f47e c6bc 3853 d63c 00ed 9c3a b082 9a3c
00000140: 80b1 afbb 4a9d 073d 4ac2 74bc 52ea ad3c
00000150: ae04 bd3c 8e7d 0cbd 155c 02bd 086c 0bbd
00000160: d666 a03c cc4f d5bc f2d8 923c 1e18 0f3d
00000170: 86cb 0dbc 1850 5a3c 8060 c1ba 7242 86bc
00000180: 979a b7bc 2082 c13b 98a6 ddbb 0103 d7bc
00000190: 188a 5d3c ae26 a0bc fcd4 f23c d4e9 e2bc
000001a0: 9d45 eebc 1c2e b2bc a03a 593c b839 cd3b
000001b0: 84c9 b93c 2ea2 65bc 7483 11bc b218 d53c
000001c0: 9c72 ab3c 2c7b 78bc dc08 da3c 0d5c a6bc
000001d0: c6ca b63c dc86 dd3c 24e1 283c 4ed3 d3bc
000001e0: ce81 ca3c 82d2 fbbc 1ab9 cabc d83b 15bc
000001f0: 4899 0bbc 74d9 5bbc 30de 6b3c f895 c6bb
00000200: 28dd 203c 68c8 02bd 9c07 fc3c 4054 e83c
00000210: 88d8 eebc 4016 1ebc 853f dbbc d4e3 0d3c
00000220: c2dc 0abc a0cf ff3c 9c31 0abc fcb1 b33c
00000230: b85c 10bd c2f6 0fbc d0f4 873c c050 043c
00000240: ac22 4a3c 608a d93a 90ac 7d3c d891 74bc
00000250: 669f c53c 1a6b 51bc 2828 ac3c e04b 15bb
00000260: dc5a 813c 9cca 77bc 00a1 f4b9 f234 a83c
00000270: 9c27 243c d8e5 073d e6ce 04bd c635 69bc
00000280: 25d2 04bd f030 77bb a4f2 3fbc 14f7 7f3c
00000290: 0ca1 06bc 38e4 08bc 2cec 033d 37c2 0cbd
000002a0: 44ea 86bc ecc1 fb3c 4095 f8ba 60f7 ef3c
000002b0: fe24 f7bc 38d1 96bb 8a38 c1bc 1059 edbc
000002c0: d5ad 0bbd 6082 f03c e62a 133d 865a 3dbc
000002d0: 008c 9b3b fcb3 b5bc 8e68 1bbc a6df 0bbd
000002e0: d065 a83c 5c28 96bc 5aa6 033d bc27 1e3c
000002f0: 306c 94bb 0098 ecb9 e5e6 e4bc 4e24 13bd
00000300: 1573 05bd 7860 083d ac5a 8abc 98b6 243c
00000310: bab0 133d c017 70bb 02b7 0abc 62e4 a7bc
00000320: b823 e13b b8c0 f93b dcce 6dbc 60a7 cabc
00000330: 24d6 ff3c 0099 2ab9 aaf4 dcbc 62e6 f0bc
00000340: 00b7 68bb fc23 3e3c 0fe5 86bc 40a8 a3ba
00000350: fd73 0abd ac69 1d3c 2a8f ffbc 54ed e03c
00000360: 008e 52bc 0457 0a3d 8c27 603c 1f37 8cbc
00000370: e026 91bc 9a3b b83c 1ccd f53c 40ab 11bd
00000380: 1009 c5bc ac0a 063d 53b7 8abc de65 b2bc
00000390: e23d 17bc 6854 6abc b87b e2bb 6ce6 babb
000003a0: e61a b9bc 2818 a13c 88f7 b23b 504f 7f3b
000003b0: bcaf 483c 205f a83a 9054 a53b ecd0 82bc
000003c0: 20f9 7e3b 703a e0bb 7ad1 993c d0f8 f63b
000003d0: 867d d1bc 1293 73bc be88 2fbc 2bae ecbc
000003e0: 0861 e83c c6b6 4ebc 20b1 0a3c df39 0abd
000003f0: 60ac 0f3d 5ce9 dcbc ef24 febc ae47 803c
-0.015564796 0.012707952 0.025280584 0.0062879547 -0.03023181 -0.027561698 -0.032461174 -0.012047812
-0.004317049 0.03344585 0.020835027 0.034002528 0.0292603 0.00060402974 0.023806445 -0.006559545
-0.022895806 0.0137041025 0.026619792 0.021000944 -0.02362955 -0.019532572 0.020382594 0.024965256
0.011756282 -0.027586117 -0.034474146 0.0034606233 -0.014832858 -0.028737934 0.02573067 0.004870463
-0.03022906 -0.010262268 0.025580544 -0.031535234 -0.03379106 0.030943513 0.007481329 0.022625595
-0.020008234 -0.0045351833 -0.030882915 -0.0291174 0.014235795 0.03545867 0.020957805 0.005162157
-0.028116148 -0.013697077 -0.00033766776 0.026561163 -0.012526033 -0.019997241 0.018283632 -0.031127242
0.027026616 -0.021222295 0.02252452 0.03479471 -0.00038779154 -0.02638886 0.009304963 0.032512844
0.013638765 0.029396504 0.03177461 0.004451271 0.02662304 0.01843549 0.015864223 -0.024600096
0.028625235 0.023077026 0.0012675934 -0.014754521 -0.024230458 0.026162729 0.0011972487 0.018861145
-0.005361736 0.033108987 -0.0149389 0.021229897 0.02307352 -0.034299426 -0.031826098 -0.034038574
0.019580286 -0.026039027 0.017925713 0.03493511 -0.008654481 0.01332476 -0.0014753491 -0.016389105
-0.022412581 0.0059054047 -0.0067642443 -0.02624655 0.013521694 -0.019549694 0.029642574 -0.027699389
-0.029085929 -0.021750502 0.013258606 0.006262984 0.022679098 -0.014015717 -0.0088814385 0.026012752
0.020928673 -0.015166085 0.026615553 -0.020307565 0.022313487 0.027041845 0.010307584 -0.025857594
0.024720099 -0.030740026 -0.024746466 -0.009108506 -0.008520432 -0.013418544 0.014396235 -0.006060358
0.009818353 -0.031929404 0.030765347 0.028360486 -0.029155985 -0.0096488595 -0.026763687 0.0086602755
-0.008475484 0.031226933 -0.008434679 0.021935456 -0.035244673 -0.008786859 0.016596228 0.008075893
0.012337368 0.0016597025 0.015483037 -0.01492735 0.024123859 -0.012781883 0.021015242 -0.002278082
0.015790395 -0.015123989 -0.0004665926 0.020533059 0.010019209 0.03317818 -0.032423876 -0.014234012
-0.032426972 -0.0037718378 -0.011715565 0.015622873 -0.0082171075 -0.008355193 0.032207653 -0.034364905
-0.016469128 0.030732118 -0.0018965378 0.029292762 -0.030169006 -0.0046025775 -0.02358653 -0.028973132
-0.034101326 0.029359043 0.035929583 -0.011557227 0.004746914 -0.02218055 -0.009485377 -0.034148835
0.02055636 -0.018329792 0.032141067 0.009653028 -0.0045294985 -0.00045126677 -0.02794213 -0.035923295
-0.032580454 0.033295125 -0.016888939 0.010053299 0.03605721 -0.003663525 -0.008466484 -0.020494644
0.006870713 0.007621851 -0.014514651 -0.024738014 0.03123004 -0.0001626946 -0.026972134 -0.02940673
-0.0035509467 0.011605259 -0.016466646 -0.0012486055 -0.03380202 0.009607714 -0.031196196 0.027456917
-0.012851238 0.03377439 0.013681304 -0.017116128 -0.017718732 0.022489358 0.03000503 -0.035563707
-0.024052173 0.03272502 -0.016933119 -0.02177709 -0.009231063 -0.014302351 -0.006911721 -0.005703738
-0.022595834 0.019664839 0.005461637 0.0038957186 0.01224893 0.0012845732 0.005045481 -0.015968762
0.0038905814 -0.006842904 0.018776644 0.007536985 -0.02557255 -0.014866607 -0.010713754 -0.028891644
0.02836658 -0.012616819 0.008465081 -0.033746596 0.0350765 -0.026966743 -0.03102347 0.01565918

cls_layer4.0.weight f4 [1, 768]
00000000: 2679 c73c 3a82 003d d697 00bd 6067 f43b
00000010: 0086 40bb 4c00 a6bb 12a6 013d 6428 90bc
00000020: 43c4 b0bc 982f f43c 11b4 ebbc 1895 72bc
00000030: 20e3 db3c 6039 67bc d6c0 123d 94cc bc3c
00000040: 86ba 0e3d e63a cc3c 46f1 05bd 4065 feba
00000050: 70db d0bb 3897 e4bb e635 b13c 2422 b5bb
00000060: 46d2 07bd 2c8a 513c 006e ba38 e8a6 793c
00000070: 00e8 743c 9c13 76bc d0c8 12bb dca6 f43c
00000080: d820 38bc 0258 0abd 305c 3abc 9f85 80bc
00000090: 64e9 edbc 60c9 993a d63d 02bc 4002 a83b
000000a0: f0ae da3c 00e0 d33a fbdd 11bd 981a 853b
000000b0: 7cf5 62bc 035c eabc 9025 d43b 667d a83c
000000c0: 9c0f 173c e037 dd3c 10d5 4dbc 4bfc e3bc
000000d0: 0a39 113d 303a 473c b231 a2bc 6c73 253c
000000e0: 38dd b6bb aa68 51bc 3828 80bc a4bf a13c
000000f0: 3425 453c b4eb 0e3d a6e3 cdbc eab9 963c
00000100: 0ac7 5fbc ca4a ae3c 861f 913c f0bd 6a3b
00000110: 908a 473b b09f babc f8de e93b 9ab8 c93c
00000120: fae3 003d 3834 1abc e233 c03c c883 ab3b
00000130: 6896 0ebd 02e6 6dbc 88f1 b2bb 9ac7 65bc
00000140: 0095 1bb9 7688 b83c 2705 febc 40f3 103d
00000150: f0c1 96bb 040c dbbb 1638 71bc 5838 44bc
00000160: 5839 8f3c 8a07 af3c c48b 2abc f8b7 43bc
00000170: 00d9 5c3a 7db8 a1bc b6e4 0c3d aec8 aa3c
00000180: 94a8 d13c 48a2 e23c 4c53 16bc 98b3 e13c
00000190: 341f 113c 300d 203b e833 f23c a4d0 7d3c
000001a0: 50ba 0fbb 5a7f 42bc ceb4 f8bc e09c 4cbc
000001b0: 104f 623c 745c fcbb 66e8 efbc 2ee8 92bc
000001c0: 2eb5 c83c c03b a7bb 9a36 fbbc 5e2e 063d
000001d0: 7c1b 073c 96ae c1bc 808b 3d3a 304d e53b
000001e0: 70c1 dc3c 38f8 f63c dca4 9b3c 20f3 c93c
000001f0: 940c 8d3c c024 173a 982a ffbb e6f1 053d
00000200: d871 9fbc 0a80 25bc 3cba 913c 2052 8e3c
00000210: b283 0b3d c8c7 783c 668e 0dbc cd2f 87bc
00000220: 84b5 13bc e01d 13bd a60f 95bc edda 05bd
00000230: c81a b8bc 41a7 a8bc 30f0 273b 748d 32bc
00000240: 5413 6f3c 445c 4b3c 00c1 51bc 054e 08bd
00000250: 2490 02bc 2630 973c 3a75 3dbc e231 9b3c
00000260: 50a2 073d 7018 023d 3633 00bd 10c4 debb
00000270: 0878 60bc 84a3 c9bc 55dc f0bc 10dd c33c
00000280: 70b7 f63c 88a4 f13b c05a c53c 80b7 96b9
00000290: 9fe1 91bc 728c b6bc ac5d 93bc 600e f4bc
000002a0: c460 0abc fc62 f33c 0e51 73bc c97c d2bc
000002b0: 4cf7 183c 5858 db3c 6144 88bc 0405 ae3c
000002c0: e0a6 31bc 5975 00bd 9e67 a93c 82a3 a6bc
000002d0: 00f8 303a 9412 df3c 6e87 54bc 0074 01b8
000002e0: 6c42 f93c 4041 f9bb 999e 04bd f8b2 10bd
000002f0: 2088 93ba 66ca 8c3c e092 12bb 52af ac3c
00000300: 6c64 8b3c 27af fcbc 5ec5 1fbc 3424 11bd
00000310: fca8 f73c 80fb 68ba e6db 34bc 66c7 913c
00000320: f4a1 4c3c d813 fabb 0006 953c 28bc 513c
00000330: 19da dbbc 1a30 06bd 009a 8dba b6b2 d0bc
00000340: 706a 383c e808 0c3c 8cad bf3c d0a8 293b
00000350: 1c41 d8bb 10ef 423b bce2 423c ccd9 963c
00000360: 902c 4ebb 6063 853a 14b5 2a3c 2ef5 09bc
00000370: 0074 283a 7097 06bd 4647 c9bc d6d1 91bc
00000380: 3805 ad3c 0273 903c aadc bf3c fcf0 e6bb
00000390: ed75 03bd 4adb 50bc 3919 bdbc 22df ae3c
000003a0: c0a4 5a3b c0e0 423a d062 f13b ecf7 22bc
000003b0: 8395 84bc 3452 c93c b864 a03b 483a 1f3c
000003c0: 4ef5 92bc 1837 243c f2e3 bfbc 64b0 c23c
000003d0: daca c53c 2eef c3bc 4008 06ba 5a52 36bc
000003e0: 1ba3 13bd ace3 723c 6731 03bd 3185 0abd
000003f0: 00bd bcbc 22e6 edbc d23a 04bd 48b6 5c3c
0.02434976 0.031374194 -0.031394802 0.0074586123 -0.0029376745 -0.0050659534 0.031652518 -0.017597385
-0.02157796 0.02980785 -0.028772386 -0.0148060545 0.0268417 -0.0141128 0.035828434 0.02304677
0.03484585 0.024930429 -0.0327008 -0.0019408837 -0.0063738152 -0.0069760345 0.021632146 -0.0055277515
-0.033159517 0.01278929 8.88966e-05 0.015237547 0.014947891 -0.015019324 -0.0022397526 0.029864721
-0.011238299 -0.033775337 -0.011374518 -0.015688716 -0.029041953 0.0011732988 -0.007949313 0.0051272213
0.026694745 0.001616478 -0.035612088 0.004062008 -0.013852473 -0.028608328 0.0064742044 0.020567607
0.00922003 0.027004182 -0.012563005 -0.027830264 0.035454787 0.012159869 -0.019799087 0.0100983195
-0.0055805705 -0.0127813015 -0.015644178 0.019744702 0.012032796 0.034892753 -0.025132965 0.018399198
-0.013658294 0.021275897 0.017715227 0.0035818778 0.003044758 -0.022781223 0.0071371756 0.024624158
0.031467415 -0.009411864 0.02346224 0.0052342154 -0.034811407 -0.01452017 -0.0054609217 -0.0140246395
-0.00014837459 0.022526007 -0.031008316 0.03538823 -0.004600756 -0.006684782 -0.014722845 -0.011976324
0.017483398 0.0213659 -0.010409299 -0.011945717 0.00084246695 -0.019741291 0.034397803 0.020847645
0.02559308 0.027665272 -0.009175133 0.027551457 0.008857537 0.0024421923 0.029565766 0.015491638
-0.002193112 -0.011871183 -0.030359652 -0.012488574 0.013812795 -0.007701451 -0.02928562 -0.017932978
0.024500456 -0.0051035583 -0.030665684 0.032759063 0.008246299 -0.02364282 0.0007230565 0.006997727
0.026947707 0.030147657 0.01899951 0.024652064 0.017217912 0.0005765669 -0.00778706 0.032701395
-0.019463465 -0.010101328 0.017788999 0.017373145 0.03406114 0.01518435 -0.008639907 -0.016502285
-0.009015445 -0.035917163 -0.018195938 -0.032679487 -0.022473708 -0.020587565 0.002562534 -0.010897983
0.0145920105 0.012412135 -0.012802362 -0.03327753 -0.007968936 0.018455576 -0.0115635935 0.018944684
0.033113778 0.031761587 -0.03129884 -0.006798275 -0.013700493 -0.024614103 -0.029401937 0.023909122
0.030116767 0.00737435 0.024091125 -0.00028746948 -0.01780778 -0.022283766 -0.017989002 -0.02979201
-0.008445922 0.029710285 -0.014850868 -0.025694268 0.009336304 0.026775524 -0.016634168 0.021242626
-0.010843009 -0.03136191 0.020679291 -0.020341638 0.0006750822 0.027230538 -0.012971742 -3.086403e-05
0.03042718 -0.0076066554 -0.032377813 -0.035326928 -0.0011255778 0.017186355 -0.0022365376 0.021079693
0.017015658 -0.030845238 -0.009751646 -0.035434917 0.030231945 -0.0008887574 -0.011038756 0.017795276
0.0124897845 -0.00763176 0.018191338 0.012801208 -0.026837396 -0.032760717 -0.0010803342 -0.025475841
0.011255845 0.008547045 0.023398183 0.0025887974 -0.0065995585 0.0029744543 0.011894878 0.0184144
-0.0031459667 0.0010176711 0.010419149 -0.008420272 0.0006425977 -0.032859266 -0.024570119 -0.017800253
0.021120653 0.017632965 0.02342065 -0.0070477705 -0.032094885 -0.012747595 -0.023083316 0.021346632
0.0033362359 0.0007434003 0.0073665157 -0.0099468045 -0.016184574 0.02457533 0.004894819 0.009718485
-0.017939236 0.010022901 -0.023424122 0.02376575 0.024144579 -0.02391776 -0.00051129237 -0.011128033
-0.03604422 0.014824789 -0.032029536 -0.033818427 -0.023039341 -0.0290404 -0.032282658 0.013471194

cls_layer5.0.weight f4 [1, 768]
00000000: c647 a33c 4834 12bc b8d4 8b3c f2c2 023d
00000010: 982b 053d b0ce 3a3c 6c8f 8f3c c74c 03bd
00000020: 34db cdbb 9418 1fbc d92a 10bd dceb cbbc
00000030: eea1 a4bc ec05 dabc f0bd d03b 243f f83c
00000040: 8029 91b9 9ce6 01bd 6fad 10bd b679 a53c
00000050: 941e 753c a0d4 cb3b 4a80 ccbc d47f be3c
00000060: b34d a6bc 40a2 7c3c 8c8e 213c a66b 5bbc
00000070: eed0 51bc 0472 9a3c b06a 2c3b e02b d5ba
00000080: 481e 9e3b 104a b43b 4893 f23b 6acd 35bc
00000090: e07b 4d3c 7469 0ebd 2a63 8f3c 4039 903c
000000a0: e85d 013d 80c8 c3bb e0a2 f6bb e4c2 de3c
000000b0: 0024 8ab9 90ce 06bb 8864 ec3b 8c70 14bc
000000c0: e44c ff3c a831 8dbb ccf3 3d3c 58ec 8cbc
000000d0: 78fe 8e3c e85a 9d3c 1a60 a53c 0854 663c
000000e0: 9540 f0bc 7fb3 0fbd ba0e 02bc 9c66 6c3c
000000f0: 7892 693c b093 77bc 8720 93bc 20a3 51bc
00000100: 66b3 04bd 2c0b de3c ec72 003d f046 373b
00000110: 7c24 bfbb aa88 ba3c 7484 f2bb b0f9 383c
00000120: 88e6 413c 745f f3bb 14a1 0ebd a84b 083d
00000130: 4010 213b 8959 bebc 86d4 3abc 4f8f 8cbc
00000140: e30e 99bc b8ec 903c b45a fc3c 5c0d f03c
00000150: 543d a53c 3256 01bd 6aca a0bc dc5b ef3c
00000160: 0d55 a4bc 6b7e 10bd 00ec 1ab8 88c7 8e3c
00000170: e2dc 02bd 308c 323b 6e95 cebc 078f a1bc
00000180: 00ea 0bbb 2200 05bc 124a a2bc 3a95 f2bc
00000190: ef2a cebc cfd1 0dbd 8037 153c c830 793c
000001a0: 8cbb d1bb 6037 95ba f685 8c3c 2424 35bc
000001b0: c473 db3c f32c d4bc 4474 b2bc 1374 bdbc
000001c0: 0d9b 0ebd 000e 0f3c f8f6 c03c 06da 6bbc
000001d0: cc5d b63c 1734 a6bc 00f2 c23c 5094 7e3b
000001e0: 003d 9c3c 8054 633a 8b84 f9bc ab1f b7bc
000001f0: 409f d33c 5621 9f3c 4c5a a8bb d856 8e3b
00000200: 801b 103b a3f9 b9bc 20f0 d63b f548 85bc
00000210: 9090 4d3c ac66 0bbc 3ad7 7fbc 96ca 5bbc
00000220: 9faf d5bc 36ce 26bc c4f3 4bbc 9acf f2bc
00000230: 6003 463b 86f9 9b3c 284b 473c f47e e73c
00000240: bc25 efbc 6fd6 ccbc 80ad cebb 5044 9fbc
00000250: 950b 97bc 10c7 533b 2eec bcbc 208f ee3b
00000260: 8000 fcbb 003e b639 be86 06bc f458 fabc
00000270: 001f e039 34bb b6bc 8c85 ec3c 4a00 16bc
00000280: cc1c 37bc a091 98bb 2057 a63c b872 dd3b
00000290: 1ea0 993c 50c6 f4bc 483c b5bc 60a1 beba
000002a0: 226d 093d ec37 2abc a009 e83c 2baa e8bc
000002b0: a5b4 eebc a651 0d3d 404f cebb a88d 5e3c
000002c0: f8f1 813b 2213 3fbc 3ec1 25bc 64d6 90bc
000002d0: 748f 32bc 3851 b83b 0869 763c 0516 0ebd
000002e0: 90bb a83c a6a4 41bc a81f 74bc 00b7 2ab9
000002f0: 7818 6abc 24b8 473c d588 99bc 262b 6dbc
00000300: 4080 7dbb 103c b8bb 834f b2bc 72bf b53c
00000310: 9a04 e2bc 92dc d3bc 0188 06bd 6468 b2bc
00000320: e666 843c 6872 05bd 8608 853c 5e9b c8bc
00000330: 58c3 5c3c 0027 bbba e0df 3e3c 3c61 623c
00000340: 9f5c 8ebc 7cbf 9bbc 50b6 193c 00e6 983b
00000350: 9a6e 9ebc 2071 093c a0a2 01bd f851 813c
00000360: df64 12bd f8f7 003d bc2a 973c 045a 33bc
00000370: 76c4 bb3c 2a30 f1bc 5a63 d7bc d23e c83c
00000380: 2052 d03a 4e78 cb3c 3527 c0bc 141a cc3c
00000390: d193 f8bc 3078 f83c fe45 c93c b80d b9bb
000003a0: 62a0 e3bc 00c4 e83b dc7c 36bc 88aa ddbb
000003b0: 7964 d1bc b007 193c 3431 cb3c 92b2 68bc
000003c0: 447a 773c 3a58 8ebc f475 f43c c48e 9f3c
000003d0: 802d a83b ec36 e13c 04d5 e83c 368a d6bc
000003e0: d828 863c 83d6 10bd 6c5c dd3c f0a2 37bb
000003f0: 50f7 ba3b 5053 0f3b 76fc f6bc 98d5 cb3b
0.019931685 -0.008923598 0.017069206 0.031924196 0.032512277 0.011401817 0.017524444 -0.032055642
-0.0062822346 -0.00971045 -0.035197113 -0.02489274 -0.020096745 -0.026614152 0.0063702986 0.030303545
-0.00027687475 -0.031714067 -0.03532165 0.020199638 0.014960904 0.0062204152 -0.024963517 0.023254313
-0.020300722 0.015419543 0.009860646 -0.013392365 -0.01280616 0.018853195 0.0026308708 -0.0016263686
0.004825387 0.005501993 0.007402811 -0.011096338 0.012541741 -0.034768537 0.01750334 0.017605424
0.031583697 -0.005974829 -0.0075267404 0.02719254 -0.00026348233 -0.0020569898 0.0072141327 -0.009060036
0.031164594 -0.004308898 0.01159377 -0.017202541 0.017455325 0.019208387 0.020187426 0.014058121
-0.02932767 -0.03508329 -0.007938081 0.014428761 0.014256112 -0.015110895 -0.017959846 -0.01279524
-0.03239765 0.027104937 0.031359598 0.0027965866 -0.0058332067 0.022770245 -0.0074010435 0.011289999
0.011834748 -0.0074271504 -0.034821585 0.033275276 0.0024576336 -0.023236053 -0.011403209 -0.017158179
-0.018683856 0.017691001 0.03080497 0.029303245 0.020170845 -0.031576343 -0.019627769 0.029218607
-0.020060087 -0.03527681 -3.6936253e-05 0.017429128 -0.03194893 0.0027244203 -0.025217738 -0.019721521
-0.0021349192 -0.008117707 -0.01981071 -0.029612172 -0.025166957 -0.034623917 0.0091074705 0.015209384
-0.006400531 -0.0011384301 0.017153721 -0.01105598 0.0267886 -0.02590034 -0.021783955 -0.023126638
-0.034815837 0.008731365 0.023555264 -0.014395243 0.022261523 -0.02028851 0.023797035 0.0038845725
0.019072056 0.0008671954 -0.03045871 -0.022353968 0.025832772 0.019425076 -0.0051377174 0.0043438487
0.0021989048 -0.022702044 0.006559387 -0.01627014 0.012546673 -0.008508366 -0.015615279 -0.0134149995
-0.02608472 -0.010181 -0.012448255 -0.029640008 0.0030214414 0.01903988 0.012163915 0.028258778
-0.029192798 -0.025004594 -0.006307304 -0.019441754 -0.01843814 0.0032314695 -0.023061838 0.0072802454
-0.0076904893 0.0003475994 -0.008210836 -0.030559994 0.00042747706 -0.022306062 0.028872274 -0.009155342
-0.011176299 -0.0046560317 0.020305216 0.0067580603 0.018753108 -0.029879719 -0.02212347 -0.0014543943
0.033551343 -0.010389309 0.028324902 -0.028401455 -0.029138872 0.034501694 -0.0062960684 0.013583578
0.0039656125 -0.011662276 -0.010116873 -0.017680354 -0.01089846 0.0056249164 0.01503969 -0.03468897
0.02059725 -0.01181904 -0.014900126 -0.00016280636 -0.01428806 0.012189899 -0.018742004 -0.014475619
-0.003868118 -0.0056223944 -0.02176643 0.022186015 -0.027590085 -0.025862012 -0.032844547 -0.021778293
0.016162347 -0.03257981 0.016239416 -0.024488147 0.013474308 -0.0014278591 0.011650056 0.013817128
-0.01737815 -0.019012205 0.009381846 0.00466609 -0.019339848 0.0083887875 -0.031649232 0.015786156
-0.03574073 0.03148648 0.018452995 -0.010946754 0.022920828 -0.029441912 -0.026292492 0.024444018
0.0015893616 0.02483764 -0.023456195 0.024914779 -0.030343922 0.030330747 0.024569508 -0.0056473874
-0.027786437 0.007103443 -0.011138167 -0.0067647137 -0.025560604 0.009340212 0.024803735 -0.014202731
0.015104834 -0.017376054 0.0298414 0.019477256 0.005132377 0.02749201 0.028421886 -0.026188951
0.016376898 -0.035360824 0.02702161 -0.0028020702 0.0057057515 0.0021869726 -0.03014968 0.0062205307

cls_layer6.0.weight f4 [1, 768]
00000000: dcde f03c 210a bbbc d068 633b 0024 cb39
00000010: b25d 7cbc fe72 d33c 02e6 ce3c 50f6 703b
00000020: a03d b23b dc12 b73c c2c6 05bd 904c d63c
00000030: 4877 2d3c 0458 39bc 41a8 0bbd 0c6e abbc
00000040: 8888 e63c 4023 10bd 5cab e13c 0046 033b
00000050: 2091 c5bc 7834 223c b060 c8bc e65b a6bc
00000060: 458f 86bc c8f2 a53b 6075 893c 8078 e03b
00000070: c07e 803c 606d 723b 2641 133d 4be3 95bc
00000080: 4ccd e33c 3ad2 d13c 88c2 e53b e26b dfbc
00000090: a2c6 6abc 98f3 943b 14a2 dc3c c088 943c
000000a0: 0d51 b8bc 6aba cdbc bab3 b1bc 9c81 fd3c
000000b0: 2800 e23c dcf1 c2bc e88c 313c b75f 12bd
000000c0: b8aa 463c 8607 f2bc 2c36 ff3c a849 cd3c
000000d0: 80e2 94ba 2810 283c 684f 36bc 30b7 0bbd
000000e0: c6b6 3dbc b28e 14bc 3047 d23c b0e1 263c
000000f0: c1ab b2bc c035 543c 0c70 3bbc 1ae1 07bd
00000100: e099 a9ba dc77 e83c 3278 a53c 58d9 883c
00000110: 48de e53c d028 cabb 4467 b0bc b040 3a3b
00000120: 925c cfbc 6a00 c53c 661e f8bc 5aff bdbc
00000130: 388a b83b 9c75 113c 00fc 913b 3a62 0f3d
00000140: c071 c63c c854 283c 223d 88bc c59c a3bc
00000150: b035 51bb 2b85 b0bc 2e76 0ebd 0032 c6b8
00000160: bfaa d1bc e885 fc3b 6413 643c 486e 9a3c
00000170: 68be 82bb 80b7 fa3a 5c57 813c dd4b ddbc
00000180: c0c7 d43a 3084 60bb cc9a 0f3d 9369 05bd
00000190: 34d5 afbc b8b1 fe3c 1f36 dcbc 0001 81b9
000001a0: 5259 9cbc 00ea 09bd 5a54 6cbc df9d cebc
000001b0: 68ae c83b 32b2 863c 59e3 10bd ba69 fabc
000001c0: 84c9 153c 5cce df3c 9027 4abc 5c6d 0d3c
000001d0: ab0c 0cbd ec1b 303c a0e7 643b 6097 edbb
000001e0: 004d c6bc e4c5 d03c 461e d4bc 4ce9 ce3c
000001f0: 686c f7bb 8c22 903c 1e43 9a3c 2036 d23b
00000200: 2897 0d3d a2a5 67bc 2872 8c3b ac64 a1bc
00000210: 147b 3a3c 4cb9 00bc 0290 803c 9e51 adbc
00000220: d079 ba3c a029 94bb 9cd4 123c 2cd4 ea3c
00000230: ca8a 0cbc 0070 a9b7 f084 6a3c 7c62 23bc
00000240: cca4 f93c 2a45 d4bc d42b 12bd 48a4 103d
00000250: ec2f f83c d8a1 e13c a078 60bb d4cb d73c
00000260: 5871 023c 4c09 0bbd 66cd 883c 20cb d03a
00000270: 10f2 e13b 046b 0b3c 4c5a 2c3c 6028 093c
00000280: 3e98 07bd c85f 91bb 78a7 e03c 3cd7 1e3c
00000290: fc70 1abc 6ae7 cc3c 5061 1cbb 50ad 45bc
000002a0: e4d1 c7bc 3090 8bbb 2833 1ebc 1cc7 303c
000002b0: e8ab 0f3d d533 89bc 2662 993c 39cf 0cbd
000002c0: f00c ad3b 3f35 9ebc 845e 483c ad2a 91bc
000002d0: 30cd aa3c ec1b bfbc 107b e83c 96ff 13bc
000002e0: 7fe0 ebbc 90d6 a4bb 58a7 4d3c 5a70 a13c
000002f0: 68b4 cbbc 02d3 6cbc bca6 e2bc a467 0ebd
00000300: 10ae 353c 3c4c 7e3c b0a2 123b e81a 8b3b
00000310: e164 acbc c0aa 75bb e166 03bd b0b3 353c
00000320: e8ae e73c d076 49bb ba6e aabc 4050 87bc
00000330: 8251 84bc b439 e33c c8a2 cf3c f0a9 6cbb
00000340: 66bb 0c3d c0af 653c a41d b9bc b99a bfbc
00000350: 88a9 843b 98fe b2bb 2c78 76bc 3853 2e3c
00000360: 2c6e de3c d02d 563b 8c50 3b3c 44a6 7c3c
00000370: 4b94 12bd a416 94bc 0021 7d39 6cfe 71bc
00000380: 4d5e 8dbc c095 293a 888c 783c 381a e6bb
00000390: 805a db3c 0a3c 57bc 1845 ca3b 2d31 a6bc
000003a0: d0fc 6c3c e845 fdbc 1cbd ea3c b6c3 3fbc
000003b0: 3762 80bc 509a cf3b 0659 033d dcc5 3abc
000003c0: a01f edba c828 c2bc d059 43bb 4cee c93c
000003d0: f2c8 133d 42c5 b4bc 549d 8b3c a4a4 023d
000003e0: 405d 063d f0ac 3d3b c813 a8bb c01e f93c
000003f0: 8c42 b43c 00fb 1b3c 2cc5 c7bc e67e b83c
0.029403143 -0.022831978 0.0034699924 0.00038746 -0.015403198 0.025811668 0.02525616 0.0036767907
0.005439475 0.02234786 -0.032660253 0.026159555 0.010587521 -0.0113124885 -0.034096006 -0.020926498
0.028141275 -0.035189867 0.02754753 0.0020030737 -0.024117053 0.009900205 -0.024460167 -0.020307492
-0.016425738 0.005064342 0.016779602 0.006850302 0.01568544 0.0036991462 0.035950802 -0.018296858
0.027807854 0.02561294 0.0070117153 -0.027273122 -0.014329584 0.00454564 0.026932754 0.018131614
-0.022499586 -0.025113303 -0.021692146 0.030945592 0.027587965 -0.023796968 0.010836817 -0.035735812
0.012125663 -0.029544603 0.03115376 0.025059536 -0.0011359006 0.010257758 -0.01112733 -0.034110248
-0.011579221 -0.009067224 0.02566871 0.010185644 -0.021810414 0.012952268 -0.011440288 -0.033173658
-0.0012939535 0.028377466 0.020198915 0.0167052 0.028060094 -0.006169416 -0.021533616 0.0028419904
-0.025312696 0.024048049 -0.030287933 -0.02319305 0.0056317113 0.008878138 0.0044550896 0.035005786
0.024224162 0.01027412 -0.016630713 -0.019972214 -0.003192287 -0.021547874 -0.034780674 -9.450689e-05
-0.025594113 0.0077063926 0.013920639 0.018851414 -0.0039899834 0.0019128174 0.015788727 -0.027013713
0.0016233847 -0.0034258477 0.035059735 -0.032571387 -0.021463968 0.031090602 -0.026881276 -0.00024605542
-0.01908556 -0.033670425 -0.014424408 -0.025221763 0.0061243065 0.016442392 -0.035373066 -0.030567992
0.009142283 0.02732008 -0.012338534 0.00863203 -0.03419177 0.010748845 0.0034928098 -0.0072507113
-0.024206638 0.025484987 -0.025893342 0.025257729 -0.007550765 0.017594598 0.018830832 0.0064151436
0.034567982 -0.014138611 0.0042860694 -0.019701324 0.011381883 -0.007856678 0.015693668 -0.021157082
0.022763163 -0.0045215636 0.008961823 0.028665625 -0.008578012 -2.0198524e-05 0.014313921 -0.009972211
0.03047409 -0.025911886 -0.03568633 0.03531292 0.030296288 0.027542993 -0.0034251586 0.02634231
0.007961594 -0.033944413 0.016699504 0.0015929677 0.006895311 0.008509401 0.010519575 0.008371443
-0.033104174 -0.004436467 0.027423605 0.009694871 -0.009426352 0.02501269 -0.0023861714 -0.012065247
-0.024392076 -0.004259132 -0.009655751 0.010789659 0.035076052 -0.016748348 0.018723559 -0.03437731
0.0052810833 -0.0193125 0.0122295655 -0.017720545 0.020849794 -0.023328744 0.028378993 -0.009033104
-0.028793572 -0.0050304607 0.012552105 0.019706894 -0.024866298 -0.014454605 -0.027667396 -0.03476681
0.011088863 0.015521105 0.0022374801 0.004245151 -0.021044197 -0.0037485808 -0.032080535 0.011090204
0.028281644 -0.0030740984 -0.020804752 -0.016517758 -0.016152147 0.027737476 0.025346175 -0.0036112033
0.034358405 0.014018953 -0.022597142 -0.023389207 0.00404853 -0.005462479 -0.0150433 0.010639958
0.027152143 0.0032681115 0.011432778 0.0154205 -0.035785954 -0.018077202 0.00024140254 -0.014770132
-0.01725688 0.0006469153 0.015170224 -0.0070221685 0.026776552 -0.013136873 0.0061727874 -0.02028712
0.014464572 -0.030917123 0.028654628 -0.011704376 -0.015671832 0.006335534 0.03206732 -0.011399712
-0.001809109 -0.023701087 -0.002980817 0.024649762 0.03608031 -0.022066716 0.017042793 0.031895295
0.032803774 0.002894219 -0.0051293112 0.03041017 0.022004388 0.009520292 -0.024386011 0.022521447

reg_layer1.0.weight f4 [5, 768]
00000000: c8a2 b7bc b298 ce3c b86b 6dbc 540c 4f3c
00000010: 58e1 d5bc 7a54 133d e043 edba dfe7 febc
00000020: 88d2 d5bc 54af d2bc 184b 1c3c be54 88bc
00000030: c357 abbc 80f8 06bc 3c0c 2b3c 5242 b0bc
00000040: 747a f3bc f020 793b a26c 9c3c 0019 833b
00000050: 18ea b9bc 7a05 a33c f8a4 d63c 207a 1dbb
00000060: 1039 073c c5c3 cebc 0e50 fcbc 8070 b939
00000070: fe44 023d 0013 ef39 40b8 4ebc ac55 07bc
00000080: 58de f6bb 185e 863c 7805 483c f0ce 613c
00000090: 663f f9bc dce2 f7bc 7374 eabc 0a2a 003d
000000a0: 9a42 c63c f88b 00bc 913f d0bc 78b9 4b3c
000000b0: d032 69bc 88ca 07bd 607c bb3a 56fb a5bc
000000c0: 0043 073b 4099 2b3c 5024 febc aaf8 d53c
000000d0: 08df b03c 885a ec3c da9d c0bc 8855 8d3c
000000e0: 724a 003d 5085 c73c 4a8a 133d 0861 d2bb
000000f0: f486 d73c 7741 8cbc e0d3 ea3c 00d7 44b9
00000100: 8814 813b b483 413c 24ae f13c e0f5 bd3c
00000110: 70b5 fa3c 7264 003d 7445 06bd c835 cabc
00000120: 6427 a8bc e4f3 fc3c 8e48 a33c 8089 a539
00000130: 08a9 2e3c e894 d43c bee2 093d 562d 48bc
00000140: b445 003d 4faa 8bbc c005 9e3a 207c 9bbb
00000150: dcfb b23c aaeb 45bc bd59 9ebc d488 9ebc
00000160: 8620 58bc 0883 ff3c 70ae 4cbb fc9e b1bb
00000170: 2eac 7ebc 50f6 c13b 9688 0abd 7a2e 8abc
00000180: 7462 92bc 367e c3bc 6a6d a83c 948f 023c
00000190: f862 2a3c 407f e73c c618 b83c a86a cb3b
000001a0: f251 073d 6c1f d93c fa02 8dbc 94d5 db3c
000001b0: 16be bc3c b24c d1bc 689b e6bb 36de 3abc
000001c0: 64de 213c 60d8 34bb ec4b 383c 0033 6139
000001d0: 3e67 65bc c0cc c73c 609b 05bb e4cd ca3c
000001e0: 44d9 e63c 9e53 063d 14f6 e0bb c06b 163a
000001f0: ae10 c9bc 32f3 9ebc 58ea b9bb ac0c d2bc
00000200: b654 113d 8001 a93c 2038 3d3b d6b9 093d
00000210: fcc8 f13c 21af ffbc c827 d93b 58e0 b73c
00000220: e048 503b 88c7 a43b a8ec 31bc 6092 813a
00000230: bc5c 123d 5cae cd3c f022 23bc 34ed e93c
00000240: e0d6 8a3a 3c9b 723c baba 6fbc e2f7 cfbc
00000250: 6d70 abbc fbb3 97bc 80fe 26ba 087d c6bb
00000260: 64c0 f13c 782b a5bb 9c78 893c 1fa5 12bd
00000270: e440 9b3c 96c2 6abc 74e5 523c c460 95bc
00000280: 989d d93c 23f3 07bd a002 d53a 5e96 09bd
00000290: d004 aabb 4018 0c3d 6825 8abb 306d 723c
000002a0: 4668 0bbd 45be e0bc ae69 a33c 649c 913c
000002b0: 20d5 bb3c 9f8e d3bc 2006 3c3b dce1 b9bb
000002c0: ae0b 08bd c0cb 0bbd 8fde c9bc 6237 af3c
000002d0: 6849 f5bc cea4 93bc 5ef7 8f3c 56b8 c6bc
000002e0: 7c91 033d 3cf9 933c 507e a3bc b07d 033b
000002f0: ead4 043d b6d7 bc3c 61b2 93bc cc56 ce3c
00000300: 5f4b cbbc c0d7 86bb ec31 ba3c 8617 06bd
00000310: 348d 4fbc 0a0d be3c 7338 debc 90a9 90bc
00000320: 404a e4bb d8cd f53c 78e9 543c 10eb 8d3c
00000330: 6688 a43c 1bc9 00bd 3c00 2ebc 3850 df3b
00000340: b0af 3b3b 52d6 41bc 88ec 8dbb e1bb 07bd
00000350: 6803 cd3b ecdf 463c 4e72 08bd 097f 13bd
00000360: a8d1 c13c 2c63 063d e65a a7bc c2b2 edbc
00000370: b80e 2c3c 204a c83b 44bc aebb 5472 b9bc
00000380: 2c2e ecbb 9bf1 10bd 547d f1bb 4ca2 aebc
00000390: b0f0 7d3c 54f3 b0bc 9c55 cfbb 4097 ad3b
000003a0: f372 11bd 7043 9bbb c7fb 0bbd 18dd e33c
000003b0: f0e4 ba3b f27e d8bc 6c38 f73c caf3 b3bc
000003c0: 14f2 323c 483a e1bb 80bd 45bb ca85 92bc
000003d0: a09e 183c 6084 2ebc 3aaa af3c 2e5b 8b3c
000003e0: 64b9 003d 12a2 cb3c 108e de3c 003f 8839
000003f0: e826 243c 20bc d8bb 50c6 b83c e07f 823c
-0.022416487 0.025219295 -0.014491014 0.012637217 -0.026108429 0.035969235 -0.0018101893 -0.031116424
-0.026101366 -0.025718369 0.009539388 -0.01664197 -0.020915871 -0.008237958 0.010439929 -0.021515999
-0.029721476 0.0038014017 0.019094769 0.004000783 -0.022694632 0.019900072 0.02620171 -0.002402909
0.008253351 -0.025239835 -0.030799892 0.0003536977 0.031804077 0.00045599788 -0.012617171 -0.008260172
-0.0075338297 0.01640229 0.012208335 0.013782248 -0.030425739 -0.030259542 -0.02861998 0.03129009
0.02420168 -0.007845871 -0.025420936 0.012434356 -0.014233306 -0.033152133 0.0014304034 -0.020261448
0.00206393 0.010473549 -0.031023175 0.026119549 0.021590725 0.028851762 -0.02351277 0.017252699
0.031320997 0.02435556 0.036020555 -0.0064202584 0.026309468 -0.01712106 0.028665483 -0.0001877211
0.003939215 0.011811186 0.029501982 0.023188531 0.030604094 0.031345792 -0.03278108 -0.024683848
-0.020526595 0.030878015 0.019932058 0.00031573698 0.010660417 0.02594991 0.033663504 -0.01221784
0.031316474 -0.017048983 0.0012056157 -0.0047450215 0.021848612 -0.0120801125 -0.0193299 -0.019352354
-0.013191348 0.03119041 -0.0031231903 -0.0054205637 -0.0155439805 0.0059192553 -0.033821665 -0.016867865
-0.017869212 -0.023863893 0.020559985 0.007968802 0.010399573 0.02825892 0.02247275 0.006207783
0.033037134 0.02650424 -0.017213333 0.02683524 0.023039859 -0.025549266 -0.007037569 -0.011405518
0.009879682 -0.002759479 0.01124857 0.00021476671 -0.014001666 0.024389625 -0.00203868 0.02475638
0.028179772 0.032794587 -0.0068652723 0.0005738102 -0.024544086 -0.019403074 -0.005673688 -0.025640808
0.035481177 0.020630598 0.0028872564 0.033624493 0.029514782 -0.031211438 0.0066270567 0.022445843
0.0031781718 0.005028669 -0.010859646 0.0009885542 0.03573297 0.025107555 -0.00995706 0.02855549
0.0010592602 0.014807519 -0.014631921 -0.025386754 -0.020927632 -0.018518439 -0.0006370321 -0.0060573854
0.029510684 -0.0050405823 0.016781144 -0.035802003 0.01895184 -0.014328619 0.012872089 -0.018234618
0.026564404 -0.033190858 0.0016251393 -0.033590667 -0.005188562 0.034202814 -0.004215885 0.01479654
-0.03403499 -0.027434478 0.019947853 0.017774768 0.022928774 -0.025824843 0.0028690174 -0.0056726765
-0.033214264 -0.034129858 -0.024642257 0.021388713 -0.02994223 -0.018022921 0.017574009 -0.02425782
0.032121167 0.01806318 -0.019957691 0.002006393 0.032429613 0.023052078 -0.018029394 0.025187872
-0.024816213 -0.004115075 0.022728883 -0.032737277 -0.012667943 0.023199577 -0.027126526 -0.017658979
-0.006966859 0.03000538 0.012995116 0.017324 0.020084571 -0.03144179 -0.010620173 0.0068149827
0.0028638653 -0.011830883 -0.0043311752 -0.03313816 0.0062565096 0.012138348 -0.033312134 -0.036009822
0.023659542 0.03280942 -0.020429086 -0.029015902 0.010501556 0.006112352 -0.0053325016 -0.022637524
-0.0072076526 -0.035386663 -0.0073696766 -0.021317624 0.015499279 -0.021600403 -0.006327344 0.0052975714
-0.035510015 -0.004738264 -0.03417566 0.027815387 0.005703561 -0.02642772 0.030178271 -0.021966834
0.010921974 -0.0068734027 -0.0030172765 -0.017886061 0.009315163 -0.010651678 0.021443475 0.017011251
0.031426802 0.024857555 0.02716735 0.0002598688 0.010019042 -0.006614223 0.0225555 0.015930116

reg_layer1.0.bias f4 [5]
00000000: 30ef 563c 6f40 87bc 2c43 e53c 500b d63c
00000010: 704d ce3c
0.01311855 -0.016510217 0.027986132 0.026128441 0.02518341
